Public/blue_orange_style.onnx (onnx, 53437 bytes, 109 tensors)

blocks.1.weight f4 [16, 3, 3, 3]
0	0x3cd88de8	0.026434854
1	0xbd42bb16	-0.0475417
2	0xbd4d53f4	-0.050128892
3	0xbd6ec8eb	-0.05829708
4	0xbd1bc4ba	-0.03802941
5	0xbd13e0f7	-0.036103215
6	0xbd730a2f	-0.059335884
7	0xbd378ba7	-0.044810917
8	0xbcfdc824	-0.030979224
9	0x3d8ecc88	0.06972605
10	0x3dc1d7de	0.094650015
11	0x3d809af9	0.06279559
12	0x3d5c8ff3	0.05384822
13	0x3d8a392d	0.06749187
14	0x3da4cb0a	0.08046539
15	0x3d090a05	0.03345682
16	0x3dcd11b2	0.10013141
17	0x3e0fb54b	0.14034002
18	0x3d7b4e01	0.061353687
19	0x3d6945ea	0.05695144
20	0x3d550ea0	0.0520159
21	0x3d3ff7a4	0.046867028
22	0x3d6f7fa7	0.058471348
23	0x3d80ea97	0.062947445
24	0x3d40a198	0.047029108
25	0x3d75adc3	0.059980165
26	0x3dcc02d0	0.09961474
27	0xbd70c236	-0.058778964
28	0xbd9ab47d	-0.07553957
29	0x3cb19c7b	0.021681061
30	0xbd176540	-0.036961794
31	0xbd0d8f19	-0.034560297
32	0x3d3f7dbf	0.04675078
33	0x3e01eaec	0.12687272
34	0x3d613895	0.0549856
35	0xbd076da2	-0.03306354
36	0x3cb00450	0.021486431
37	0xbd159e4d	-0.03652792
38	0x3d310666	0.043218993
39	0x3d00338a	0.03129915
40	0x3ceda45e	0.02900904
41	0x3d53bae7	0.051691916
42	0x3daceb67	0.08443337
43	0x3d7497ad	0.05971496
44	0x3cd2b54d	0.025721217
45	0xbd100c93	-0.03516824
46	0xbceaa894	-0.028644837
47	0x3d9a25b1	0.0752672
48	0x3ce3dc3b	0.027814975
49	0xbc48e37a	-0.012261266
50	0x3daf7a2d	0.08568225
51	0x3e0c2174	0.13684636
52	0x3d8159dd	0.06315968
53	0xbccea6c4	-0.025226004
54	0x3d84d5ab	0.064860664
55	0x3d8b87ee	0.06813036
56	0x3d8a872a	0.06764062
57	0x3d83ea20	0.0644114
58	0x3d959783	0.07304289
59	0x3d95940d	0.07303629
60	0x3da411b6	0.080111906
61	0x3da52e83	0.08065512
62	0x3d9778e1	0.07396103
63	0x3d7115ef	0.058858808
64	0x3d79fd3a	0.06103251
65	0x3d6de114	0.05807598
66	0x3d732067	0.059357073
67	0x3d6a9c83	0.057278167
68	0x3d61d4d3	0.055134606
69	0x3d6ccf90	0.057815135
70	0x3d4386f1	0.047736112
71	0x3d7285f8	0.059209794
72	0x3d65b00a	0.056076087
73	0x3d637403	0.05553056
74	0x3d684039	0.056701872
75	0x3d621c85	0.05520298
76	0x3d60d23d	0.054888
77	0x3d602cf4	0.05473037
78	0x3d51fa2d	0.051263977
79	0x3d58d8a9	0.052941
80	0x3d5f52ce	0.054522328
81	0xbd670515	-0.05640133
82	0xbd6b64a1	-0.057469014
83	0xbd5a6800	-0.05332184
84	0xbd6c50dc	-0.0576943
85	0x3d5a1f1d	0.05325233
86	0xbc20e4fa	-0.009820217
87	0xbd946439	-0.072456785
88	0x3cffdf08	0.03123428
89	0x3d744952	0.059640236
90	0xbd6a24c5	-0.057163972
91	0xbd7b306b	-0.06132547
92	0xbd6fe146	-0.058564447
93	0xbd73f237	-0.059557166
94	0xbd970037	-0.07373088
95	0xbd56ec1f	-0.052471276
96	0xbd8e2deb	-0.06942352
97	0xbdf67413	-0.12033858
98	0x3d396475	0.04526182
99	0xbd763d96	-0.060117327
100	0xbd74af88	-0.059737712
101	0xbd6e5b78	-0.0581927
102	0xbd7e4dda	-0.062085964
103	0xbd80daf0	-0.06291759
104	0xbd6c0d32	-0.05762977
105	0xbd8758bd	-0.06608722
106	0xbdbb406b	-0.09143146
107	0xbd5f3e84	-0.05450298
108	0x3d63de4b	0.055631917
109	0x3d7caeb9	0.061690066
110	0x3d709d3e	0.058743708
111	0x3d6a475b	0.057196956
112	0x3d6f8df9	0.058485005
113	0x3d710f5c	0.05885254
114	0x3d506076	0.050873242
115	0x3d6438c4	0.0557182
116	0x3d6e4a6a	0.058176436
117	0x3d7badcb	0.06144504
118	0x3d820828	0.06349212
119	0x3d7d2046	0.061798356
120	0x3d7f1aec	0.062281534
121	0x3d802bea	0.06258376
122	0x3d797ddd	0.06091105
123	0x3d60baf8	0.054865807
124	0x3d730227	0.059328225
125	0x3d78811a	0.060669996
126	0x3d83524f	0.064121835
127	0x3d82b695	0.06382481
128	0x3d7d64e5	0.0618638
129	0xbd5157d5	-0.051109154
130	0x3d86d86b	0.06584247
131	0x3d7d18ba	0.06179116
132	0xbd807084	-0.06271461
133	0x3d70449a	0.058659174
134	0x3d7fef5e	0.062484138
135	0xbd7c32ef	-0.06157201
136	0xbd75b143	-0.059983503
137	0xbd7aeddc	-0.061261997
138	0xbd7bb821	-0.061454896
139	0xbd71e9f7	-0.059061017
140	0xbd784275	-0.060610253
141	0xbd742885	-0.059608955
142	0xbd7295a1	-0.05922473
143	0xbd765d53	-0.060147595
144	0xbd76ad3f	-0.060223814
145	0xbd746795	-0.059669096
146	0xbd6fc022	-0.05853284
147	0xbd79b3ce	-0.06096249
148	0xbd700406	-0.058597587
149	0xbd7679ef	-0.06017488
150	0xbd7183ed	-0.058963705
151	0xbd72cf97	-0.059280004
152	0xbd753e55	-0.059873898
153	0xbd72bacd	-0.05926018
154	0xbd76b55f	-0.060231563
155	0xbd7891bb	-0.060685854
156	0xbd706881	-0.058693413
157	0xbd77b918	-0.060479254
158	0xbd78c115	-0.060731012
159	0xbd74a0ba	-0.059723593
160	0xbd740ce9	-0.059582625
161	0xbd78090c	-0.060555503
162	0xbd53dac7	-0.051722314
163	0xbdb9303a	-0.090424016
164	0xbdbd442c	-0.092415184
165	0xbc904880	-0.017612696
166	0xbcae0880	-0.021244287
167	0xbd6af8da	-0.05736623
168	0xbcbc3858	-0.022976086
169	0x3d0ab935	0.033868033
170	0xb96d781c	-0.00022646826
171	0xbd241ccf	-0.040066537
172	0xbdca70a4	-0.09884766
173	0xbdd2ce3e	-0.10293244
174	0x3ae97499	0.0017811238
175	0x3d262c52	0.04056961
176	0xbd78df2b	-0.060759705
177	0xbc5e8cf0	-0.013583407
178	0x3d720c2b	0.059093636
179	0x3ca53146	0.020165097
180	0xbc037426	-0.008023297
181	0xbdcd8517	-0.100351505
182	0xbd9cff05	-0.076658286
183	0x3d8bf4f9	0.06833834
184	0x3d515610	0.051107466
185	0xbb8a4fd6	-0.004220943
186	0x3d0bd88b	0.03414206
187	0x3d50e951	0.051003758
188	0x3d15e3dd	0.03659426
189	0x3d9b6b7a	0.07588859
190	0x3d680b1d	0.056651223
191	0xbd9d0387	-0.076666884
192	0x3d8ae3f0	0.06781757
193	0x3d64c9c0	0.055856466
194	0x3d6d12e6	0.05787935
195	0x3d80ea85	0.06294731
196	0x3d7c752f	0.061635192
197	0x3d9244aa	0.07142003
198	0x3daf4d18	0.08559626
199	0x3d9d0a13	0.07667937
200	0x3da5adc7	0.08089786
201	0x3daafafb	0.08348652
202	0x3d99f985	0.07518295
203	0x3da70e97	0.0815708
204	0x3da73308	0.0816403
205	0x3da80d5f	0.08205675
206	0x3da7cbd2	0.081931725
207	0xbcac628d	-0.021043086
208	0xbcce1695	-0.025157252
209	0xbd173063	-0.03691138
210	0xbca3cced	-0.019995177
211	0xbc670db5	-0.014102389
212	0xbce12a50	-0.027485996
213	0xbb900d44	-0.0043961126
214	0xbc8e4cfd	-0.017370695
215	0xbcc727a8	-0.024310902
216	0x3d7121a5	0.058869977
217	0x3d74f7af	0.059806522
218	0x3d76c5fd	0.06024741
219	0x3d708245	0.058717985
220	0x3d779d9b	0.06045304
221	0x3d70258a	0.05862955
222	0x3d783f9d	0.06060754
223	0x3d704c87	0.058666732
224	0x3d7513b7	0.059833255
225	0x3d749816	0.059715353
226	0x3d7ba68f	0.06143814
227	0x3d725f0f	0.059172686
228	0x3d7119af	0.058862384
229	0x3d760f03	0.06007291
230	0x3d79dff8	0.06100461
231	0x3d789913	0.060692858
232	0x3d708d53	0.058728527
233	0x3d71ef68	0.059066206
234	0x3d7c2466	0.06155815
235	0x3d7b9e54	0.06143029
236	0x3d742000	0.05960083
237	0x3d7963a8	0.060886055
238	0x3d7ae6d9	0.06125531
239	0x3d77466d	0.060369898
240	0x3d71fe85	0.05908062
241	0x3d7c39a3	0.061578404
242	0x3d786740	0.060645342
243	0x3d6f20c3	0.058380853
244	0x3d6a29e4	0.057168856
245	0x3d6c0620	0.05762303
246	0x3d6c383e	0.057670824
247	0x3d71ad53	0.059003185
248	0x3d7443d8	0.059635013
249	0x3d735287	0.059404876
250	0x3d7821c6	0.060579084
251	0x3d6f348c	0.058399722
252	0x3d780bbc	0.060558066
253	0x3d71f138	0.059067935
254	0x3d73bfa3	0.05950893
255	0x3d74ad40	0.059735537

blocks.2.bias f4 [16]
0	0xbd8dd9cd	-0.06926308
1	0x3d51df90	0.051238596
2	0xbe136301	-0.14393236
3	0xbda6531c	-0.081213206
4	0x3e893aea	0.2680276
5	0xbe88c681	-0.26713946
6	0xbdbde24d	-0.09271679
7	0xbd90215a	-0.07037611
8	0x3db15e5b	0.08660575
9	0x3e8e7e44	0.27830708
10	0x3f459284	0.7717669
11	0xbe041ca0	-0.12901545
12	0xbb844e8c	-0.004037684
13	0x3e81a3ee	0.2532038
14	0xbdb127c6	-0.08650164
15	0x3e290de5	0.16509207

blocks.2.running_mean f4 [16]
0	0x42bf0c1d	95.52366
1	0x4284de00	66.43359
2	0x433879b9	184.47548
3	0xc3077cd6	-135.48764
4	0x431b5d25	155.36385
5	0xc333e1fb	-179.88274
6	0xc2657082	-57.35987
7	0x42e00226	112.004196
8	0x433401df	180.00731
9	0x43343a8f	180.22874
10	0xc30a9224	-138.57086
11	0xc333ca3b	-179.78996
12	0x4333b061	179.68898
13	0xc1804c24	-16.037178
14	0x424d6ff2	51.35932
15	0x4290b969	72.36213

blocks.2.running_var f4 [16]
0	0x45a059fb	5131.2476
1	0x4504c755	2124.4583
2	0x465f2a48	14282.57
3	0x46038208	8416.508
4	0x461de2d1	10104.704
5	0x465781f7	13792.491
6	0x44ab2ee8	1369.4658
7	0x459e3b61	5063.4224
8	0x46582331	13832.798
9	0x4658fb6a	13886.854
10	0x460109d7	8258.46
11	0x46576d07	13787.257
12	0x465735be	13773.436
13	0x43dc5e6b	440.73764
14	0x448ebf28	1141.9736
15	0x4508cfdd	2188.9915

blocks.2.weight f4 [16]
0	0x3f7d9ead	0.99070245
1	0x3f7ac3d6	0.9795507
2	0x3f5a3b48	0.85246706
3	0x3f6a067a	0.9141613
4	0x3f7e32ea	0.9929644
5	0x3f54f2a7	0.8318276
6	0x3f4902dc	0.7851999
7	0x3f585e92	0.845193
8	0x3f87e58d	1.0616928
9	0x3f985332	1.1900389
10	0x3fab739b	1.3394655
11	0x3f549bbc	0.8305013
12	0x3f6f5f68	0.93504953
13	0x3ef1b270	0.4720645
14	0x3f54f5db	0.83187646
15	0x3f388e0e	0.7209176

blocks.3.blocks.10.bias f4 [16]
0	0xbd8dcefb	-0.06924244
1	0x3b1f1cbd	0.0024278604
2	0xbcef90a0	-0.029243767
3	0x3db8c2b5	0.090215124
4	0xbddf3aa2	-0.10899855
5	0x3bac2769	0.0052537215
6	0x3b170a03	0.002304674
7	0xbd8a1fda	-0.067443565
8	0xbe13b78c	-0.14425486
9	0xbdd5b3a2	-0.10434653
10	0xbd8b7e92	-0.06811251
11	0xbc53241e	-0.012887029
12	0xbe2e42d0	-0.17017674
13	0xbd3c9cdc	-0.04604803
14	0xbc473905	-0.012159591
15	0xbd47f8d8	-0.0488213

blocks.3.blocks.10.running_mean f4 [16]
0	0x40179262	2.3683095
1	0xbda12738	-0.078688085
2	0x3fc5c435	1.5450503
3	0x3fb96d45	1.4486471
4	0x3f42b656	0.7605947
5	0x3fc15dbf	1.5106734
6	0x3f414954	0.75502515
7	0x400ff305	2.2492077
8	0xc016d4c5	-2.3567364
9	0x402fe53c	2.7483664
10	0x3f812935	1.00907
11	0x3ee379e7	0.44428942
12	0x401b65f4	2.4280977
13	0x401479ab	2.319926
14	0x3ea075cc	0.31339872
15	0x3fb00132	1.3750365

blocks.3.blocks.10.running_var f4 [16]
0	0x41323a8f	11.139297
1	0x401af8ed	2.4214432
2	0x411db337	9.856254
3	0x41170ed2	9.441118
4	0x40a77944	5.233553
5	0x4100d693	8.052386
6	0x4082cc73	4.087457
7	0x409366e5	4.6063104
8	0x412a6667	10.650001
9	0x4188adb5	17.084818
10	0x40933ade	4.600936
11	0x406e5cb0	3.7244072
12	0x40c5812b	6.1720176
13	0x40eac97d	7.3370957
14	0x3f5b42a6	0.8564857
15	0x409f1d3d	4.972319

blocks.3.blocks.10.weight f4 [16]
0	0x3f699431	0.9124175
1	0x3f8025ef	1.0011576
2	0x3f911f70	1.1337719
3	0x3f8ad944	1.0847554
4	0x3f6a3d63	0.9149992
5	0x3f67cd30	0.90547466
6	0x3f7d56da	0.9896065
7	0x3f75cabf	0.9601249
8	0x3f463de5	0.77438194
9	0x3f81164e	1.0084932
10	0x3f6ea202	0.93215954
11	0x3f7d7a13	0.99014395
12	0x3f82a439	1.0206367
13	0x3f79f8d6	0.9764532
14	0x3f7719d1	0.9652377
15	0x3f6ea8e2	0.93226445

blocks.3.blocks.12.bias f4 [16]
0	0xb898d0d8	-7.286825e-05
1	0xb7b807d7	-2.193816e-05
2	0xb9a798c1	-0.00031966533
3	0xb5a406b7	-1.2220906e-06
4	0x35827528	9.719852e-07
5	0xb882f682	-6.244799e-05
6	0x37a22684	1.932984e-05
7	0xb81ad839	-3.6917834e-05
8	0x39998025	0.0002927791
9	0x3912bbd6	0.0001399362
10	0xb7b038bd	-2.1007256e-05
11	0xb748ec93	-1.1976011e-05
12	0xb76ee07a	-1.42381705e-05
13	0x398ea599	0.0002720773
14	0xba9bfd6d	-0.0011901088
15	0xb6ac7efd	-5.140783e-06

blocks.3.blocks.12.weight f4 [16, 16, 2, 2]
0	0x3d7cdf5f	0.06173646
1	0x3dc975e5	0.0983694
2	0x3dc77537	0.09739154
3	0x3d89059d	0.06690524
4	0xbe56d40a	-0.20979324
5	0x3e0cd0f4	0.13751584
6	0xbcfa8790	-0.03058222
7	0xbd9aec2f	-0.0756458
8	0x3dee40c2	0.11633445
9	0x3dedbc32	0.11608161
10	0xbe0b53c6	-0.13606176
11	0xbc6235db	-0.013806785
12	0xbd3c3c8b	-0.045956176
13	0xbe044f78	-0.1292094
14	0x3d86f628	0.06589919
15	0xbd92b17c	-0.07162759
16	0xbe15746a	-0.1459519
17	0xbdf421e0	-0.11920524
18	0x3da125de	0.07868551
19	0xbd8cdb5b	-0.06877776
20	0xbcafbe37	-0.021453006
21	0xbca18386	-0.019716036
22	0xbdd58b40	-0.104269505
23	0xbc99e366	-0.01878519
24	0x3dfbaf18	0.12289256
25	0x3b157334	0.0022804262
26	0x3dc226ee	0.094800815
27	0xbcfba182	-0.030716661
28	0xbd869256	-0.0657088
29	0x3df47170	0.11935699
30	0x3d78459d	0.060613263
31	0xbc275c6e	-0.010214908
32	0xbd071501	-0.032979015
33	0xbe04a6d6	-0.12954268
34	0xbd1300c1	-0.03588939
35	0x3cc63da6	0.024199318
36	0xbd88cd7d	-0.06679819
37	0xbd0123eb	-0.031528395
38	0xbbf458ff	-0.007456898
39	0xbc308ded	-0.010776025
40	0x3d8b3565	0.067972936
41	0x3e22cfd0	0.15899587
42	0x3e1000bd	0.14062782
43	0x3dbeeb45	0.09322218
44	0x3da271fe	0.079318985
45	0xbdd2f0d4	-0.102998406
46	0x3d975b05	0.073904075
47	0x3d9cecdb	0.07662364
48	0xbd6590b3	-0.0560462
49	0x3d1fe724	0.039038792
50	0x3b93812d	0.004501483
51	0x3d48cd94	0.04902418
52	0x3d4604b5	0.048344333
53	0xbe6861d1	-0.22693564
54	0xbe2234a0	-0.15840387
55	0xbd970158	-0.07373303
56	0x3d6986e0	0.057013392
57	0x3d10cc6c	0.035351202
58	0xbd44326e	-0.047899656
59	0x3e0075ce	0.12544939
60	0xbc896d97	-0.01677589
61	0x3ddd775f	0.10813784
62	0x3e0437a6	0.12911853
63	0x3d3a8d12	0.04554469
64	0xbd1a7fbd	-0.037719477
65	0x3c9cd2de	0.019143518
66	0xbd85ee64	-0.0653961
67	0xbe21436c	-0.15748376
68	0xbb830a14	-0.003999004
69	0xbd985024	-0.074371606
70	0xbdee9577	-0.11649602
71	0xbcb0dc9d	-0.021589572
72	0xbd5106c2	-0.051031835
73	0xbc80c149	-0.015717166
74	0x3c735567	0.0148519045
75	0xbc3a26e5	-0.011361812
76	0x3df65bd9	0.12029237
77	0x3d8cf56f	0.0688275
78	0x3d8b17d2	0.06791653
79	0x3de3f70b	0.11131104
80	0x3d96b302	0.07358362
81	0x3e35fb88	0.17771733
82	0x3e15642a	0.14588991
83	0x3da75ee9	0.081723996
84	0x3de0f160	0.10983539
85	0x3da0c886	0.07850747
86	0x3dc7a943	0.09749081
87	0xbbfb1f9c	-0.0076636802
88	0x3d659953	0.056054424
89	0x3d2780d9	0.040894363
90	0xbdc86054	-0.09783998
91	0xbde19a8f	-0.11015808
92	0x3dd1bc73	0.10241022
93	0x3cdba45b	0.02681177
94	0x3d971b0b	0.07378205
95	0x3d23152f	0.039815124
96	0x3d988d23	0.07448795
97	0x3c044670	0.008073434
98	0x3d878a4d	0.06618176
99	0x3bbfa152	0.0058480883
100	0x3d7a12b4	0.061052993
101	0x3c8c5664	0.017131038
102	0x3d4b4ae6	0.049631976
103	0xbd85ebb3	-0.06539097
104	0xbe684a53	-0.22684602
105	0xbe567fe6	-0.20947227
106	0xbe45a2d4	-0.19300395
107	0xbe5f6fa8	-0.21819937
108	0xbe4c14ab	-0.19929759
109	0xbdc1c81d	-0.09461997
110	0xbdf908e6	-0.121599
111	0xbdb53d6e	-0.088496074
112	0x3c4914d2	0.01227303
113	0xbe0b7845	-0.13620098
114	0x3dcdd38d	0.10050116
115	0xbd18903a	-0.03724692
116	0x3e1fc2ad	0.15601607
117	0x3e789351	0.24274947
118	0x3e7a6b80	0.2445507
119	0x3e2f1545	0.17097957
120	0xbd807909	-0.062730856
121	0x3c264727	0.0101488
122	0xbad91ad1	-0.0016563778
123	0xbd0d2613	-0.03446014
124	0xbdbd7aa2	-0.09251906
125	0xbd08fa54	-0.033441857
126	0x3d9015b0	0.070353866
127	0x3d041eda	0.032255985
128	0xbc61e253	-0.01378687
129	0xbdbac338	-0.09119266
130	0x3d66e300	0.056368828
131	0xbe3bf3bb	-0.18354695
132	0xbe3f6ddc	-0.18694252
133	0xbc89a971	-0.016804429
134	0x3db8bec9	0.090207644
135	0x3da0475a	0.07826109
136	0x3d087f84	0.033324733
137	0x3e00c147	0.1257373
138	0x3d9dc27c	0.077031106
139	0xbe2418c7	-0.16025077
140	0xbb7ce22c	-0.0038586957
141	0xbd382bfd	-0.044963825
142	0x3e12fd49	0.14354433
143	0x3d43ea2e	0.047830753
144	0xbdadc7d1	-0.084853776
145	0xbe046e13	-0.12932615
146	0x3c7ac18d	0.015304935
147	0x39db69cf	0.0004184977
148	0x3af5b131	0.0018744824
149	0x3c8935e4	0.01674933
150	0x3d922c0d	0.07137308
151	0xbd3ec67f	-0.04657602
152	0x3cef8898	0.029239938
153	0xbe5126bb	-0.20424931
154	0xba851611	-0.0010153671
155	0x3d2f995d	0.042870868
156	0xbe1b5614	-0.15169555
157	0x3dd299a6	0.10283212
158	0x3e011fc4	0.12609774
159	0x3e196cdb	0.14982931
160	0xbc620743	-0.013795677
161	0xbd47759f	-0.048696157
162	0xbc8d36af	-0.01723799
163	0x3a179107	0.00057818036
164	0xbcd9f43b	-0.026605716
165	0x3d3a8e5d	0.045545924
166	0xbd9c999d	-0.07646487
167	0xbe532ee7	-0.2062336
168	0x3e0ed579	0.13948621
169	0x3e96b2b2	0.2943321
170	0x3da1f0e1	0.07907272
171	0x3ea5803a	0.32324392
172	0x3dead91f	0.11467194
173	0xbdb0356b	-0.08603939
174	0x3d8887ca	0.06666525
175	0xbdca228e	-0.09869872
176	0xbc3aedbe	-0.011409221
177	0xbe0f15c9	-0.13973154
178	0xbd3bee62	-0.045881636
179	0x3d50a45c	0.050937995
180	0xbdaec489	-0.0853358
181	0xbe6c0b12	-0.23051098
182	0x3d242f41	0.040084127
183	0xbe161cf2	-0.1465948
184	0x3c515616	0.012776872
185	0xbd104ca3	-0.035229336
186	0xbd40f735	-0.047110755
187	0x3cecbca0	0.028898537
188	0x3e2d84e5	0.16945226
189	0x3e05da14	0.13071471
190	0x3c8cbfe3	0.017181342
191	0xbdeb80ca	-0.11499174
192	0xbe127517	-0.14302479
193	0x3daf987b	0.08574005
194	0x3df6be27	0.120479874
195	0xbd3816a0	-0.044943452
196	0xbe2da99c	-0.16959232
197	0x3da16799	0.07881088
198	0x3c7d5183	0.015461328
199	0xbd9e9dca	-0.077449396
200	0xbdb892c3	-0.090123676
201	0x3c8b8e13	0.01703552
202	0x3d62ebb2	0.055400558
203	0xbe476688	-0.19472706
204	0x3ddf2658	0.10895985
205	0x3ccf9118	0.02533774
206	0x3e578fd9	0.21050967
207	0x3dcddca8	0.100518525
208	0x3d502d4c	0.05082445
209	0x3cb050f3	0.021522975
210	0xbdeeff76	-0.11669819
211	0xbe33178a	-0.17489448
212	0x3dddcdf9	0.10830302
213	0x3e0bf18e	0.13666365
214	0xbd8630ae	-0.06552254
215	0xbcd5cc3a	-0.02609836
216	0x3cd5c517	0.026094956
217	0x3d758974	0.05994554
218	0x3d823ffb	0.063598596
219	0xbdcf1ded	-0.1011313
220	0xbe55e6c4	-0.20888811
221	0xbd465134	-0.048417285
222	0x3cb59a34	0.022168256
223	0xbce1317b	-0.027489414
224	0xbde2df6b	-0.1107777
225	0xbe0fc2fd	-0.14039226
226	0x3dcec860	0.10096812
227	0x3c6b93ed	0.01437853
228	0xbc9cf723	-0.019160813
229	0x3d468e95	0.04847582
230	0xbe23db07	-0.16001521
231	0xbd1f2741	-0.038855795
232	0x3e76e8fc	0.24112314
233	0x3d56f5ae	0.052480392
234	0x3dd456b0	0.10368097
235	0x3dde7bde	0.108634695
236	0x3c97ac6f	0.01851484
237	0xbd57ccf7	-0.052685704
238	0x3ce902d9	0.02844374
239	0xbdf63c8e	-0.12023269
240	0xbcc90b38	-0.024541482
241	0xbe1a4157	-0.15063988
242	0x3de86164	0.11346701
243	0x3ded5107	0.1158772
244	0xbe287ac3	-0.1645308
245	0xbd962fe8	-0.07333356
246	0xbdf9432b	-0.121710144
247	0x3b03de01	0.0020121338
248	0x3d0380cf	0.032105263
249	0x3d93d0d8	0.07217568
250	0xbd103fba	-0.035217024
251	0xbde27bf5	-0.11058799
252	0xbc9706ec	-0.018435918
253	0xbddb7a28	-0.10716659
254	0xbcafecd5	-0.021475235
255	0x3e19462c	0.14968175

blocks.3.blocks.13.bias f4 [16]
0	0xbda9602d	-0.08270297
1	0x3e14069e	0.1445565
2	0xbe28569d	-0.1643929
3	0xbe08a240	-0.13343143
4	0x3e331f47	0.174924
5	0xbe770061	-0.24121238
6	0xbe9906b3	-0.29887924
7	0xbd9e5885	-0.077317275
8	0x3cbe138d	0.023202682
9	0x3e9df414	0.3085028
10	0x3f147e84	0.5800555
11	0xbde86965	-0.113482274
12	0xbc97040d	-0.018434549
13	0x3f749827	0.95544666
14	0xbe8dfe3f	-0.27733037
15	0x3f6089c8	0.8771024

blocks.3.blocks.13.running_mean f4 [16]
0	0x3d004a41	0.031320814
1	0xbde566c3	-0.11201241
2	0xbdb25529	-0.08707649
3	0x3e35f6f8	0.17769992
4	0xbe34c27f	-0.1765232
5	0xbd01536e	-0.031573705
6	0x3d66099b	0.056161504
7	0x3dfe946b	0.12430652
8	0xbded1b01	-0.11577416
9	0xbe7a8b1c	-0.24467129
10	0x3e8fa48b	0.28055224
11	0x3e4c3b0b	0.19944398
12	0xbd45539c	-0.04817544
13	0xbd34cdf2	-0.044141717
14	0x3d43485a	0.04767642
15	0x3d8ef929	0.06981117

blocks.3.blocks.13.running_var f4 [16]
0	0x3dfcb290	0.123387456
1	0x3ed9559a	0.4244812
2	0x3e2fbfcd	0.1716301
3	0x3e79a9a1	0.24381115
4	0x3e63eb63	0.22257762
5	0x3e2c3433	0.16816787
6	0x3e8fd786	0.2809412
7	0x3e97be68	0.29637456
8	0x3dc4bbe3	0.09606149
9	0x3ea6e4bb	0.32596382
10	0x3ed44137	0.41456005
11	0x3e5e9be0	0.21739149
12	0x3e761714	0.24032241
13	0x3dc40c40	0.09572649
14	0x3d48b2e1	0.048998717
15	0x3e846611	0.2585912

blocks.3.blocks.13.weight f4 [16]
0	0x3f411966	0.7542938
1	0x3f4e0b07	0.80485576
2	0x3f6efd4c	0.9335525
3	0x3f355776	0.7083658
4	0x3f661233	0.8987152
5	0x3f2af5f2	0.6678153
6	0x3f164a3d	0.5870703
7	0x3f51f248	0.82010317
8	0x3f3653ba	0.71221507
9	0x3f78a207	0.97122234
10	0x3fb83c32	1.439337
11	0x3f69f34c	0.91386867
12	0x3f43758d	0.76351243
13	0x3f7c1673	0.98471755
14	0x3fa521a2	1.2900889
15	0x3fa25a41	1.2683793

blocks.3.blocks.2.weight f4 [8, 16, 3, 3]
0	0xbde10da5	-0.109889306
1	0xbd9bb014	-0.076019436
2	0x3d3b683c	0.045753703
3	0x3bbf1244	0.005831035
4	0xbd88dd92	-0.06682886
5	0xbd42977c	-0.047507748
6	0xbc77b043	-0.015117708
7	0xbc970d19	-0.018438863
8	0xbd8fd959	-0.07023878
9	0xbde1603e	-0.11004685
10	0xbd15ca3a	-0.03656981
11	0xbd8c4db2	-0.06850757
12	0xbdf66bd6	-0.12032287
13	0xbcd873e0	-0.026422441
14	0xbd0949ea	-0.033517756
15	0xbd3b020b	-0.045656245
16	0xba8e4698	-0.0010854779
17	0xbd63c884	-0.05561115
18	0x3d07d8f8	0.033165902
19	0xbd3c49ac	-0.045968696
20	0xbd98cf62	-0.0746143
21	0xbd4c6245	-0.049898405
22	0xbda8209d	-0.082093455
23	0xbd5d7cd8	-0.05407414
24	0x3d08ede4	0.033429995
25	0xbdb0afe8	-0.086273015
26	0x3c98b980	0.01864314
27	0xbc26e534	-0.010186482
28	0x3da8bb82	0.08238889
29	0x3d96359a	0.073344424
30	0xbca6bab0	-0.020352691
31	0xbc46099d	-0.012087253
32	0x3d9396c3	0.0720649
33	0x3d6464c0	0.055760145
34	0xbc05d215	-0.008167763
35	0x3d920083	0.07129004
36	0xbdcfec74	-0.10152522
37	0xbe0b292c	-0.13589925
38	0xbe166b69	-0.14689411
39	0xbdb26aad	-0.08711753
40	0xbdcc242a	-0.09967835
41	0xbdfe7252	-0.124241486
42	0xbd5c2ca1	-0.0537535
43	0xbe0f1eed	-0.13976641
44	0xbd86cd1d	-0.06582091
45	0x3dd3b1ba	0.10336633
46	0x3da5898f	0.08082878
47	0x3dcf736f	0.10129439
48	0x3da6f441	0.081520565
49	0xbcf9130d	-0.030404592
50	0x3df26d69	0.118372746
51	0x3d46c78a	0.04853014
52	0x3d7ca34c	0.06167917
53	0x3dcb2641	0.09919406
54	0xbce36ec9	-0.027762787
55	0xbd2d1749	-0.042258535
56	0xbd7e6964	-0.062112227
57	0x3c92d7a3	0.01792509
58	0xbd68f83a	-0.056877352
59	0xbc8c0fe9	-0.01709743
60	0xbe0d5ede	-0.1380572
61	0xbdefa028	-0.11700469
62	0xbca330c3	-0.019920712
63	0xbdb62f44	-0.08895734
64	0xbca6241d	-0.020280892
65	0xbdbe75ba	-0.09299798
66	0x3cc5e882	0.02415872
67	0x3ca3d0e4	0.019997068
68	0xbd964a01	-0.07338334
69	0xbdae5a75	-0.08513347
70	0x3cdbc640	0.026827931
71	0xbdb3d2c3	-0.08780434
72	0xbd76bd6b	-0.060239237
73	0xbda6bd8d	-0.08141623
74	0xbe07ef44	-0.13274866
75	0xbd6d80e8	-0.057984263
76	0xbc79a60f	-0.015237345
77	0xbe0785ec	-0.13234681
78	0xbd59652a	-0.053074993
79	0xbe021b66	-0.12705764
80	0xbd9960b1	-0.074891455
81	0xbcc2b344	-0.023767121
82	0xbdebc5ae	-0.11512314
83	0x3c778e36	0.015109589
84	0xbc652996	-0.013986966
85	0xbd9f3194	-0.07773128
86	0x3d16aa59	0.03678355
87	0xbd911e25	-0.07085828
88	0xbe113eaa	-0.1418406
89	0xbe062874	-0.13101369
90	0x3dcd7787	0.10032564
91	0x3dc877d8	0.097884834
92	0xbd4fa88f	-0.05069786
93	0x3d6daa65	0.05802383
94	0x3c8a0668	0.016848758
95	0xbd746320	-0.059664845
96	0x3cf0fc45	0.029417166
97	0xbe062c17	-0.13102756
98	0xbd8625b8	-0.06550163
99	0x3e0df343	0.13862328
100	0x3bce78d4	0.006301025
101	0x3c9549ae	0.01822361
102	0x3c4d11e5	0.012516473
103	0xbd10878b	-0.035285514
104	0x3c4de47c	0.012566682
105	0xbc4c0ffe	-0.012454985
106	0x3d9ae969	0.07564051
107	0x3dae382f	0.0850681
108	0xbde6dfb8	-0.1127314
109	0xbca952ef	-0.020669429
110	0xbddf1e87	-0.108944945
111	0xbd8dc545	-0.06922392
112	0xbc4a3faa	-0.01234428
113	0xbdaf2606	-0.08552174
114	0xbdbd1343	-0.092321895
115	0xbc8ca546	-0.017168652
116	0xbd87cc0d	-0.066307165
117	0xbd1750b7	-0.03694221
118	0xbdc387a2	-0.09547354
119	0x3ccff664	0.025386043
120	0xbd0b9e14	-0.034086302
121	0xbc572d7e	-0.013133405
122	0x3b65be34	0.0035055997
123	0xbdee1a00	-0.11626053
124	0xbdb642e5	-0.08899478
125	0x3c575a4a	0.013144085
126	0xbb33ff5a	-0.0027465434
127	0xbddfcdba	-0.10927911
128	0xbc9807b9	-0.01855837
129	0xbdeccf2a	-0.11562951
130	0xbde466f7	-0.111524515
131	0x3d25b9a1	0.040460233
132	0xbda418a9	-0.08012516
133	0xbd7fe6b0	-0.06247586
134	0xbd80efda	-0.06295748
135	0x3c140690	0.009034768
136	0xbd7da08c	-0.061920688
137	0x3ca13529	0.019678669
138	0xbbbe7af5	-0.0058129975
139	0xbc2e0a7f	-0.01062262
140	0x3d25d449	0.040485654
141	0x3c895d20	0.016768038
142	0xbd4b80c9	-0.049683366
143	0xbd6818ee	-0.0566644
144	0xbce02298	-0.027360246
145	0xbe11fb64	-0.14256054
146	0xbcc50831	-0.024051758
147	0x3cb3209c	0.021866135
148	0xbdd7ad11	-0.10531057
149	0xbd59133a	-0.05299685
150	0xbd8d1d2c	-0.0689033
151	0xbd89c9ce	-0.06727944
152	0x3cb24117	0.021759553
153	0x3d4716cd	0.04860573
154	0x3d27cc1d	0.040966142
155	0x3b5558ff	0.0032554267
156	0x3d4429ea	0.047891535
157	0x3d365f39	0.044524405
158	0x3cdbf895	0.026851932
159	0xbb097c37	-0.0020978579
160	0xbd88a20b	-0.06671532
161	0x3de79a5b	0.11308738
162	0xbbaa70b3	-0.005201423
163	0xbe0506bd	-0.12990852
164	0x3b664429	0.0035135841
165	0x3b5d4c3d	0.0033767365
166	0xbd1b379b	-0.037894826
167	0x3c9e6765	0.019336412
168	0xbd9dbe46	-0.077023074
169	0xbd6abc01	-0.0573082
170	0xbd8c030f	-0.06836521
171	0x3bd1ea9f	0.006406143
172	0x3dd470b6	0.103730604
173	0x3de81061	0.11331249
174	0x3dd60ea2	0.1045201
175	0x3ddee1cb	0.1088291
176	0xbbc34858	-0.005959552
177	0x3cbd57bd	0.023113126
178	0x3d959004	0.073028594
179	0x3d0ea7b9	0.03482792
180	0x3d4b775e	0.049674384
181	0x3ddbe541	0.10737086
182	0x3cdac611	0.026705774
183	0x3dce1523	0.10062625
184	0xbce1ec54	-0.02757851
185	0x3bdedeee	0.0068014776
186	0x3e0c6d16	0.13713488
187	0x3defda60	0.117115736
188	0x3df4b178	0.11947912
189	0x3d23a23b	0.039949637
190	0x3db11988	0.08647448
191	0x3ca9f36b	0.020745954
192	0xbd215b09	-0.03939346
193	0x3d5a44a6	0.053288125
194	0xbb8e5b07	-0.0043443474
195	0xbcde8945	-0.027165065
196	0x3d190326	0.03735652
197	0x3d526924	0.0513698
198	0x3d7ce70e	0.06174379
199	0x3db6cce2	0.08925797
200	0x3d8f3b57	0.0699374
201	0x3dd78b58	0.105246246
202	0x3e0ec99e	0.13944098
203	0x3dc8b5cb	0.09800299
204	0x3d3a659a	0.04550705
205	0x3e076fc6	0.13226232
206	0x3d8355d5	0.064128555
207	0x3cdfe7eb	0.027332267
208	0x3c1d98ce	0.009618951
209	0x3c9d4c85	0.019201526
210	0x3d29e82f	0.041481193
211	0xbc274cd9	-0.010211193
212	0xbdd0cb05	-0.10194973
213	0xbcd08a78	-0.025456652
214	0xbd81bf83	-0.06335356
215	0xbd579863	-0.05263556
216	0xbd800e7f	-0.06252765
217	0xbc3d6986	-0.011560803
218	0x3d2762db	0.04086576
219	0x3cc368d7	0.023853702
220	0x3c69340a	0.0142335985
221	0x3d9f29c1	0.07771636
222	0x3d2827ee	0.041053705
223	0x3de789e8	0.113056004
224	0x3d08d370	0.033404768
225	0xbcad0232	-0.02111921
226	0x3c667ec0	0.0140683055
227	0x3d34ce38	0.044141978
228	0x3dd64e43	0.10464146
229	0x3c4f621c	0.012657668
230	0x3cb5c1f3	0.022187209
231	0x3df99861	0.12187267
232	0x3d9bf518	0.07615107
233	0x3c320914	0.010866422
234	0x3dda902b	0.10672029
235	0x3d418726	0.04724803
236	0x3dbbf988	0.09178454
237	0x3dea843d	0.11451004
238	0x3cd4204d	0.025894308
239	0x3de4d29a	0.111729816
240	0x3e02d4db	0.1277651
241	0x3d28616e	0.04110854
242	0x3bf27b00	0.0073999166
243	0xbd222b4d	-0.039592076
244	0x3cd0b894	0.025478639
245	0x3d1f56e6	0.038901232
246	0xbd13f91a	-0.036126234
247	0x3dd2ce77	0.10293286
248	0x3dc11718	0.09428233
249	0xbc76774d	-0.015043092
250	0x3c665b29	0.01405982
251	0xbd2336d3	-0.039847206
252	0xbe02880e	-0.12747213
253	0xbd99ca5d	-0.07509301
254	0xbd484e65	-0.048902888
255	0xbd955d4c	-0.072931856

blocks.3.blocks.3.bias f4 [8]
0	0x3e2713ff	0.16316222
1	0xbdf5174e	-0.11967336
2	0xbcd1c5bc	-0.025606982
3	0x3e964342	0.2934819
4	0x3dfbc9a7	0.122943215
5	0x3e24e764	0.16103894
6	0xbe0b12ad	-0.13581343
7	0xbd0abebb	-0.0338733

blocks.3.blocks.3.running_mean f4 [8]
0	0xc00969ac	-2.1470747
1	0x3f8f37ff	1.1188964
2	0x4065f8d9	3.5933135
3	0x3f910db3	1.1332306
4	0xbee296f9	-0.44255808
5	0x3ddf1c74	0.10894099
6	0x3eee179e	0.46502393
7	0x4023ef69	2.5614874

blocks.3.blocks.3.running_var f4 [8]
0	0x4114a861	9.291108
1	0x3feb7fde	1.8398397
2	0x40b884bd	5.7662034
3	0x414006ef	12.001693
4	0x4084f023	4.1543136
5	0x41506577	13.024772
6	0x410592a4	8.348301
7	0x3fdeb293	1.7398247

blocks.3.blocks.3.weight f4 [8]
0	0x3f6acbe0	0.9171734
1	0x3f75fa63	0.96085185
2	0x3f464e8c	0.77463603
3	0x3f51a64b	0.8189437
4	0x3f567200	0.837677
5	0x3f55dbca	0.83538496
6	0x3f5946d2	0.8487369
7	0x3ed08638	0.407274

blocks.3.blocks.4.blocks.2.weight f4 [8, 1, 3, 3]
0	0xbe230752	-0.15920761
1	0xbdfd9e6c	-0.12383732
2	0xbe1dbca9	-0.15404
3	0xbdc9264b	-0.09821757
4	0xbb36e952	-0.0027910066
5	0xbc807934	-0.015682794
6	0xbeaa329c	-0.33241737
7	0xbd846374	-0.06464282
8	0xbe921670	-0.28532743
9	0x3dcb13a4	0.099158555
10	0x3b13b113	0.0022535964
11	0x3f34dd08	0.70649767
12	0x3e294481	0.16530038
13	0xbdbf0a9b	-0.09328195
14	0x3d8a2d14	0.06746879
15	0xbd9b4300	-0.075811386
16	0x3e26d4cd	0.16292115
17	0xbda4818e	-0.08032523
18	0x3f00ab53	0.5026142
19	0xbe0e695e	-0.13907382
20	0x3ecc9e8e	0.39964718
21	0x3e44f18e	0.19232771
22	0xbe1ec634	-0.15505296
23	0xbea94802	-0.3306275
24	0xbe9a36b7	-0.3011987
25	0xbbd79c5c	-0.006579919
26	0xbe13b4e4	-0.14424473
27	0x3ef11811	0.47088674
28	0xbcd397fd	-0.02582931
29	0xbe416a8e	-0.18888304
30	0x3e9bf886	0.30463046
31	0xbcb4f970	-0.022091597
32	0x3e1a6424	0.15077263
33	0xbd4e4595	-0.050359327
34	0xbc70cdb7	-0.014697484
35	0xbeac1fd9	-0.33618048
36	0x3e91a4b5	0.28445974
37	0xbcafd7a8	-0.021465138
38	0xbe28fed3	-0.16503458
39	0x3e51a1cc	0.20471877
40	0x3e7dd823	0.24789481
41	0x3d80e01e	0.06292747
42	0xbe60b3f7	-0.21943651
43	0x3eca8497	0.39554283
44	0x3c5e7b1c	0.013579156
45	0x3d239e88	0.03994611
46	0x3e0f75df	0.14009808
47	0xbd152a9c	-0.03641759
48	0x3e8f7758	0.2802074
49	0x3e5ee777	0.21767984
50	0xbece13d1	-0.40249494
51	0x3eaca7e1	0.3372183
52	0xbde44e2a	-0.11147721
53	0x3e8f7968	0.28022313
54	0x3e4a3cef	0.19749807
55	0xbe53a8ca	-0.20669857
56	0xbcba6328	-0.02275236
57	0xbdc94b5f	-0.09828829
58	0xbeb6c011	-0.3569341
59	0xbe964d83	-0.29356012
60	0xbe9abc55	-0.3022181
61	0xbcf943fc	-0.030427925
62	0xbe91141b	-0.28335652
63	0x3e8ae02b	0.27124152
64	0x3db7f910	0.08983052
65	0x3d62e7ed	0.055396963
66	0x3d3d807e	0.046265118
67	0xbe2017a6	-0.15634021
68	0x3e62ea51	0.22159697
69	0x3dd4dd12	0.10393728
70	0x3e9a3194	0.3011595
71	0x3dc26940	0.09492731

blocks.3.blocks.4.blocks.3.bias f4 [8]
0	0x3dcac0b5	0.09900037
1	0xbdf098a6	-0.117478654
2	0xbe7a83fc	-0.2446441
3	0x3dd168d2	0.10225071
4	0x3d398132	0.045289226
5	0x3d7116a5	0.058859486
6	0x3ddc98b7	0.107713155
7	0x3df54a9b	0.119771205

blocks.3.blocks.4.blocks.3.running_mean f4 [8]
0	0xbf19ecee	-0.6012715
1	0x3eb70242	0.3574391
2	0x3cd3b6b2	0.025843952
3	0x3e0d65b4	0.13808328
4	0x3eb1f320	0.34755802
5	0x3eabc7d4	0.33550894
6	0xbed74566	-0.42045134
7	0x3e0f3dfa	0.13988486

blocks.3.blocks.4.blocks.3.running_var f4 [8]
0	0x3e7af8b4	0.24508935
1	0x3e9b2cb9	0.30307558
2	0x3cb2c4ef	0.02182242
3	0x3d24970b	0.04018311
4	0x3e313380	0.17304802
5	0x3e0405cb	0.12892835
6	0x3eea859b	0.45805058
7	0x3d91f792	0.071272984

blocks.3.blocks.4.blocks.3.weight f4 [8]
0	0x3f5e50b3	0.8684189
1	0x3f80180a	1.0007336
2	0x3f1ded33	0.6169006
3	0x3f59e537	0.8511538
4	0x3f6970c0	0.9118767
5	0x3f8588fb	1.0432428
6	0x3f345070	0.7043524
7	0x3f8a5d81	1.0809785

blocks.3.blocks.4.blocks.5.weight f4 [8, 8, 1, 1]
0	0xbcc90da0	-0.02454263
1	0x3e28e30e	0.16492864
2	0xbd3da73a	-0.046302058
3	0x3d753238	0.059862345
4	0xbea63759	-0.32464102
5	0x3ed0a185	0.4074823
6	0xbe250786	-0.16116151
7	0xbe01d5ce	-0.12679216
8	0xbe717e26	-0.23583278
9	0xbd5e58fd	-0.054284085
10	0x3e5828fa	0.21109381
11	0x3dc0a018	0.094055355
12	0xbe43185d	-0.19052263
13	0x3eb0048c	0.3437847
14	0xbdf50583	-0.11963942
15	0xbe87be2e	-0.26512283
16	0x3e095554	0.13411456
17	0x3e10cbd5	0.14140256
18	0xbe129ad6	-0.14316878
19	0xbd9b577d	-0.075850464
20	0xbe1a035f	-0.15040348
21	0x3ecf8640	0.40532112
22	0x3d1615e5	0.036641974
23	0xbe47b6a5	-0.19503267
24	0x3eb57d7a	0.35447294
25	0x3e04e0d5	0.12976392
26	0x3e0351da	0.12824193
27	0xbdaf341b	-0.0855486
28	0x3dc1d8f1	0.094652064
29	0x3e134148	0.14380372
30	0xbe575d14	-0.210316
31	0x3efda059	0.49536398
32	0xbe07351b	-0.13203852
33	0xbe67a112	-0.22620037
34	0x3e5a4b51	0.21317793
35	0xbe1a38d3	-0.15060739
36	0xbed28738	-0.4111879
37	0x3e6a6ed7	0.22893845
38	0xbe07d118	-0.13263357
39	0xbe7adacb	-0.24497525
40	0xbdeaabfc	-0.11458585
41	0xbf06ccf0	-0.5265646
42	0xbd61ce63	-0.055128466
43	0xbdc2d036	-0.09512369
44	0xbe356748	-0.1771518
45	0x3df06281	0.11737538
46	0x3e6a5b17	0.2288631
47	0x3d911580	0.07084179
48	0xbdaba9f6	-0.08382027
49	0xbea074a4	-0.3133899
50	0xbd8e0a85	-0.069356
51	0x3ec498ed	0.38397923
52	0xbe09cdae	-0.13457367
53	0x3e778210	0.24170709
54	0xbe724eb9	-0.23662843
55	0xbe5d2153	-0.21594743
56	0xbeb50108	-0.3535235
57	0xbc7235c1	-0.014783324
58	0xbd2adceb	-0.04171459
59	0xbddaf469	-0.10691149
60	0xbec24092	-0.37939888
61	0x3e9dcb8b	0.30819353
62	0xbd91d12e	-0.07119976
63	0xbe637ae8	-0.22214854

blocks.3.blocks.4.blocks.6.bias f4 [8]
0	0x3e39c364	0.18140942
1	0x3d7bf86b	0.061516207
2	0xbd15ae33	-0.036543082
3	0x3e22b72b	0.15890186
4	0x3d692eb0	0.05692929
5	0x3c80d963	0.015728658
6	0xbd4df829	-0.050285492
7	0xbcaa4f84	-0.02078987

blocks.3.blocks.4.blocks.6.running_mean f4 [8]
0	0x3d01fe53	0.031736683
1	0xbdfc10c2	-0.12307884
2	0x3e11d310	0.1424067
3	0x3ee02ea3	0.4378558
4	0xbec28c19	-0.3799751
5	0xbe4f74ed	-0.20259447
6	0xbdf1b3a3	-0.11801841
7	0xbea4f3a5	-0.32217136

blocks.3.blocks.4.blocks.6.running_var f4 [8]
0	0x3ebb8536	0.3662507
1	0x3ea401c6	0.32032603
2	0x3e6281c1	0.2211981
3	0x3ede4296	0.43410176
4	0x3e6cb522	0.23115972
5	0x3dd49a2c	0.103809685
6	0x3e35e70a	0.17763916
7	0x3ee2b8e5	0.44281688

blocks.3.blocks.4.blocks.6.weight f4 [8]
0	0x3f877e49	1.0585414
1	0x3f38d2c0	0.7219658
2	0x3f94759e	1.1598394
3	0x3f7b9d0d	0.98286515
4	0x3f5eefe3	0.8708479
5	0x3f4e84ee	0.80671585
6	0x3f7fbde1	0.9989911
7	0x3f7d6bce	0.9899262

blocks.3.blocks.5.blocks.2.weight f4 [8, 1, 3, 3]
0	0xbd080f45	-0.033217687
1	0x3ddca725	0.10774068
2	0xbe8aba7b	-0.27095398
3	0x3e254659	0.16140117
4	0x3e54df1e	0.20788237
5	0xbe3125a8	-0.17299521
6	0x3ded8bde	0.11598943
7	0xbe748f92	-0.23882893
8	0xbea4c717	-0.32183143
9	0x3d44d286	0.048052333
10	0x3ec83609	0.39103726
11	0xbd844a6f	-0.064595096
12	0xbe335961	-0.17514564
13	0x3b1acc10	0.0023620166
14	0x3e871863	0.26385793
15	0x3ebe91e3	0.37220678
16	0xbe13ff8f	-0.14452957
17	0x3d24f75c	0.040274963
18	0xbf0db198	-0.5534911
19	0xbde3cd47	-0.11123138
20	0xbdd8760e	-0.10569392
21	0x3da0a734	0.078443915
22	0xbe173907	-0.14767848
23	0xbe4a74e1	-0.19771148
24	0xbd976bf4	-0.07393637
25	0xbeccd80c	-0.4000858
26	0xbe87b972	-0.2650867
27	0xbea61680	-0.3243904
28	0xbd241901	-0.040062908
29	0xbebdfb18	-0.37105632
30	0x3e91c962	0.28473955
31	0x3cab13cd	0.020883465
32	0x3e38b5ae	0.18038055
33	0xbec51177	-0.38489887
34	0xbd91aa8f	-0.071126096
35	0xbed573c4	-0.41689885
36	0x3e30b0e4	0.17254978
37	0xbf2fb7f2	-0.68640053
38	0x3e9ee909	0.31037167
39	0x3ea41670	0.32048368
40	0x3d878615	0.06617371
41	0x3d963d33	0.073358916
42	0xbe716787	-0.23574649
43	0x3e65528b	0.22394769
44	0xbbfaea46	-0.007657322
45	0x3ebe8bca	0.37216026
46	0xbdfd801c	-0.123779505
47	0x3e690755	0.22756703
48	0x3e806382	0.25075918
49	0xbe752183	-0.23938565
50	0x3e4f56b2	0.20247915
51	0xbd6daa18	-0.058023542
52	0x3e9e75b5	0.30949178
53	0xbdddb2f8	-0.10825151
54	0xbc9e3792	-0.019313607
55	0xbe8feff8	-0.2811277
56	0x3f1ea552	0.6197101
57	0xbeb6749e	-0.35635847
58	0xbd9d2853	-0.07673707
59	0xbe238e45	-0.1597224
60	0xbdfc027c	-0.12305161
61	0x3eb190a7	0.34680673
62	0x3db78bae	0.08962189
63	0x3d6c41e0	0.05768001
64	0xbe82fe47	-0.25584623
65	0xbdc2c597	-0.095103435
66	0xbdea95cd	-0.114543535
67	0xbcbb6218	-0.022873923
68	0xbea5b176	-0.32361954
69	0xbdabd049	-0.083893366
70	0x3edba5fc	0.42900074
71	0x3ed94273	0.4243351

blocks.3.blocks.5.blocks.3.bias f4 [8]
0	0xb9c095f3	-0.00036732815
1	0x3e65db00	0.22446823
2	0x3ecaaa5a	0.39583093
3	0x3f28a526	0.65876997
4	0x3edb8942	0.42878157
5	0x3d35cdd6	0.044385754
6	0xbe635702	-0.2220116
7	0x3e295315	0.165356

blocks.3.blocks.5.blocks.3.running_mean f4 [8]
0	0xbedb3417	-0.4281318
1	0x3ef8e2f0	0.4861064
2	0xbf17e8ef	-0.59339803
3	0xbf1fac03	-0.62371844
4	0x3dcd3c3f	0.10021257
5	0x3eebe82c	0.4607557
6	0x3b898988	0.004197303
7	0x3c02f842	0.00799376

blocks.3.blocks.5.blocks.3.running_var f4 [8]
0	0x3e841fe4	0.2580558
1	0x3ee1698c	0.44025838
2	0x3f99503c	1.197761
3	0x3f00c87d	0.5030592
4	0x3ce112f1	0.027474852
5	0x3e65ca91	0.22440554
6	0x3d5b91df	0.05360591
7	0x3c4d10df	0.012516229

blocks.3.blocks.5.blocks.3.weight f4 [8]
0	0x3f69810e	0.91212547
1	0x3f768f46	0.9631237
2	0x3f862653	1.0480446
3	0x3f8fde07	1.1239632
4	0x3f0994ec	0.5374286
5	0x3f6a5c46	0.9154705
6	0x3f47041a	0.77740633
7	0x3f0e9e0d	0.55709916

blocks.3.blocks.5.blocks.5.weight f4 [8, 8, 1, 1]
0	0x3ebd0558	0.3691814
1	0x3e773024	0.24139458
2	0x3eb70f26	0.35753745
3	0x3e90cbe6	0.28280562
4	0xbe3a347d	-0.18184085
5	0xbd5eb0e2	-0.054367907
6	0xbe0ce417	-0.13758884
7	0xbe3076f0	-0.17232871
8	0x3c69b75d	0.014264909
9	0x3e7aabed	0.24479647
10	0xbf1ff591	-0.6248408
11	0xbeb31b6a	-0.34981853
12	0xbdcd004e	-0.10009824
13	0xbe8bc414	-0.27298033
14	0xbdffe47e	-0.12494753
15	0x3e24ed12	0.1610606
16	0x3e46317a	0.19354811
17	0xbe45705c	-0.19281143
18	0xbdd9c128	-0.10632545
19	0x3e8205b6	0.25394982
20	0xbe98ab51	-0.29818204
21	0xbe0f8113	-0.14014082
22	0x3e95e535	0.29276434
23	0xbdb72dc4	-0.08944276
24	0x3ddebc35	0.108757414
25	0xbe706254	-0.23475009
26	0x3dacf963	0.08446004
27	0xbf33d61d	-0.70248586
28	0x3e348688	0.17629445
29	0xbdcd3b7a	-0.1002111
30	0xbd3013a6	-0.04298749
31	0xbd957afb	-0.07298847
32	0x3da4e076	0.08050625
33	0x3cd57622	0.026057307
34	0xbf40a535	-0.75252086
35	0xbe906b32	-0.28206784
36	0xbdce4f57	-0.100737266
37	0x3e09494c	0.13406867
38	0x3e76ca3c	0.24100584
39	0x3e6125b3	0.21987037
40	0x3cec5280	0.028847933
41	0xbdebde49	-0.11517007
42	0x3e2db21f	0.16962479
43	0xbb86f26e	-0.0041182553
44	0xbe8e171c	-0.27752006
45	0xbef629a6	-0.4807865
46	0xbe5b1d56	-0.2139791
47	0xbe414926	-0.1887556
48	0x3e44edbc	0.19231313
49	0x3e9c4beb	0.3052667
50	0x3bf1af1a	0.00737561
51	0xbe903263	-0.28163442
52	0x3e1ca0f7	0.15295778
53	0xbe929c3d	-0.28634825
54	0x3e25f589	0.16206945
55	0xbd3dc464	-0.04632987
56	0xbe28ec6d	-0.1649644
57	0x3ea9ce2c	0.3316511
58	0xbebf67ec	-0.37383974
59	0xba9a4c63	-0.0011772033
60	0x3b9feb4f	0.004880346
61	0xbe1a9836	-0.15097126
62	0x3e8ce07d	0.2751502
63	0xbde8e56d	-0.113718845

blocks.3.blocks.5.blocks.6.bias f4 [8]
0	0x3e4730d1	0.19452216
1	0x3dd6db4b	0.104910456
2	0xbd23bd88	-0.039975673
3	0x3e2a1cce	0.1661255
4	0xbd8fef74	-0.07028094
5	0x3cafa0b9	0.021438943
6	0xbca039d3	-0.019558823
7	0xbe5daa68	-0.21647036

blocks.3.blocks.5.blocks.6.running_mean f4 [8]
0	0x3f1a8bd4	0.6036961
1	0xbf45dd9f	-0.7729129
2	0xbd41e7b2	-0.047340102
3	0xbf269a97	-0.65079635
4	0xbf283d09	-0.6571813
5	0xbead1293	-0.33803234
6	0xbda48da3	-0.080348276
7	0xbe6111eb	-0.21979491

blocks.3.blocks.5.blocks.6.running_var f4 [8]
0	0x3daa631e	0.08319686
1	0x3f006bb4	0.5016434
2	0x3dc3fc08	0.095695555
3	0x3e2ff4ca	0.17183223
4	0x3e92894d	0.28620377
5	0x3e11c7b8	0.14236343
6	0x3e4c1ef8	0.19933689
7	0x3e70d22d	0.23517676

blocks.3.blocks.5.blocks.6.weight f4 [8]
0	0x3f22b99d	0.63564473
1	0x3fa40882	1.2815096
2	0x3f449af0	0.76798916
3	0x3fbd8350	1.4805698
4	0x3f67fc17	0.90619034
5	0x3f2eeb07	0.68327373
6	0x3f69193c	0.9105413
7	0x3f827ca0	1.0194283

blocks.3.blocks.6.blocks.2.weight f4 [8, 1, 3, 3]
0	0x3db25166	0.08706932
1	0xbe26ffe3	-0.1630855
2	0x3e59813d	0.21240707
3	0xbe0e80ae	-0.13916275
4	0xbc2e6c43	-0.010645929
5	0xbd7c4137	-0.06158563
6	0xbbc1f05b	-0.005918545
7	0x3ed57cc1	0.41696742
8	0x3e954bb0	0.29159307
9	0x3e9bf0a0	0.3045702
10	0xbe01325d	-0.12616868
11	0x3e87c127	0.2651455
12	0xbe4f810e	-0.20264074
13	0x3db54c95	0.088524975
14	0xbb831321	-0.004000083
15	0xbe2f9817	-0.17147861
16	0x3cc95404	0.024576195
17	0x3f026451	0.5093432
18	0xbd7611bc	-0.060075507
19	0xbd74cfde	-0.05976855
20	0x3df465e6	0.11933498
21	0x3c6c0edb	0.014407839
22	0xbe1d4506	-0.15358362
23	0x3e2946fb	0.16530983
24	0xbebce305	-0.36891952
25	0xbeb5842b	-0.354524
26	0xbd27ff7d	-0.041015137
27	0xbe8b31ac	-0.27186334
28	0xbe2e58d8	-0.17026079
29	0xbd0dcc46	-0.03461864
30	0xbe9f072b	-0.31060156
31	0xbeabb6d5	-0.33537927
32	0xbc84f239	-0.016228782
33	0x3e1558f2	0.14584711
34	0xbe13ac1b	-0.14421122
35	0xbd353f32	-0.04424972
36	0x3db34b74	0.08754626
37	0x3de61d4b	0.11236056
38	0xbd9ca392	-0.07648386
39	0x3d936da8	0.0719865
40	0x3e999068	0.29992986
41	0xbe557e4d	-0.20848961
42	0x3dad5eec	0.084653705
43	0x3e184eef	0.14873861
44	0x3e9f2eb4	0.3109032
45	0xbda10602	-0.07862474
46	0xbd7fef65	-0.062484164
47	0xbe7d3203	-0.24726109
48	0xbe491c0e	-0.19639608
49	0xbeaabde7	-0.3334801
50	0x3de6e608	0.11274344
51	0xbdf14910	-0.11781514
52	0xbc0f7a3b	-0.008757169
53	0xbd4703a1	-0.048587445
54	0x3d1704d4	0.03686984
55	0xbec35191	-0.38148168
56	0x3dda1549	0.10648591
57	0xbe0486e4	-0.12942082
58	0x3dff6823	0.124710344
59	0xbd3e0a4d	-0.046396542
60	0xbde5aeac	-0.11214957
61	0xbea68dea	-0.32530147
62	0xbe0e40dd	-0.13891931
63	0x3ceaeeb5	0.028678278
64	0x3e69c2a1	0.22828151
65	0x3e523b1e	0.20530364
66	0xbe810d99	-0.25205687
67	0x3cf40e80	0.02979207
68	0x3e3ac193	0.18237905
69	0xbd9e666e	-0.07734381
70	0x3df43ae8	0.11925298
71	0x3dc297f1	0.09501637

blocks.3.blocks.6.blocks.3.bias f4 [8]
0	0x3e16b675	0.1471804
1	0x3e949427	0.2901928
2	0xbe294a8c	-0.16532344
3	0x3e29bd66	0.16576156
4	0xbe55897d	-0.20853229
5	0xbdcd1625	-0.10013989
6	0x3e21a37d	0.15785022
7	0xbd4fc657	-0.05072626

blocks.3.blocks.6.blocks.3.running_mean f4 [8]
0	0x3f2d75d0	0.6775789
1	0x3f45493b	0.77064866
2	0xbe5bbecd	-0.21459503
3	0xbfb4e4a0	-1.4132271
4	0x3e6b0e54	0.22954684
5	0xbed4b969	-0.41547707
6	0xbe6a7eb8	-0.22899902
7	0x3ea2452a	0.31693393

blocks.3.blocks.6.blocks.3.running_var f4 [8]
0	0x3ebb71d8	0.36610293
1	0x3fd483b1	1.6602689
2	0x3e1153f0	0.14192176
3	0x405f0c61	3.4851305
4	0x3e1b0c6a	0.15141454
5	0x3e28caa1	0.16483547
6	0x3e4d8f3f	0.20074175
7	0x3eb44482	0.35208517

blocks.3.blocks.6.blocks.3.weight f4 [8]
0	0x3f5f6f38	0.8727908
1	0x3f8b81d0	1.0898991
2	0x3f3ccb09	0.7374731
3	0x3f6cd474	0.9251168
4	0x3f3b3a4b	0.73135823
5	0x3f30be28	0.69040155
6	0x3f4e40f2	0.8056785
7	0x3f71b65c	0.94418883

blocks.3.blocks.6.blocks.5.weight f4 [8, 8, 1, 1]
0	0x3d965713	0.07340827
1	0xbe2804e3	-0.16408114
2	0x3de4795c	0.1115596
3	0xbe35fa73	-0.1777132
4	0x3e975ebd	0.29564467
5	0x3dad680e	0.084671125
6	0xbd549f81	-0.051909927
7	0xbee8e065	-0.454837
8	0xbede6995	-0.43439928
9	0x3ea72c68	0.32651067
10	0x3c5b0ee4	0.013370249
11	0xbed343e8	-0.41262746
12	0x3e6a388b	0.22873132
13	0xbde59dc5	-0.11211733
14	0xbe362a21	-0.17789508
15	0x3daaaee2	0.083341375
16	0xbd9430a0	-0.07235837
17	0x3e7f07b1	0.24905278
18	0x3e0f9f09	0.14025511
19	0xbdc20a4c	-0.0947462
20	0x3e1a7d18	0.15086782
21	0xbe72fc75	-0.23729117
22	0x3dcc583e	0.09977768
23	0x3ee51788	0.44744515
24	0xbe921e80	-0.28538895
25	0xbe1e3166	-0.15448532
26	0xbcdfd5f6	-0.027323704
27	0xbe4ea339	-0.20179452
28	0xbd339de6	-0.043851756
29	0xbe50cb63	-0.20390086
30	0xbebb12a1	-0.3653765
31	0xbe430305	-0.1904412
32	0xbd2364dc	-0.03989111
33	0x3ec59e60	0.38597393
34	0x3e424976	0.18973336
35	0xbe740faa	-0.238341
36	0xbb362dbc	-0.0027798256
37	0xbe8ae367	-0.2712662
38	0xbdcd69cb	-0.10029944
39	0x3d4e7928	0.050408512
40	0xbcda435c	-0.026643448
41	0x3eb53cbe	0.35397905
42	0x3d69403a	0.056946017
43	0xbcd407e4	-0.025882669
44	0xbdf26bc9	-0.11836965
45	0x3e88bf1b	0.26708302
46	0x3d939df7	0.07207864
47	0xbded7ed1	-0.11596454
48	0x3d5c6fc1	0.053817514
49	0x3e9a326b	0.3011659
50	0xbc2fb1a4	-0.010723505
51	0xbe303365	-0.17207105
52	0x3df072f9	0.11740679
53	0x3da2fe11	0.079586156
54	0x3de08218	0.109623134
55	0x3dc8e5a3	0.09809425
56	0xbe13208f	-0.14367889
57	0x3ed3df63	0.41381368
58	0x3cdb2a54	0.026753582
59	0xbdb27de0	-0.08715415
60	0xbdc9d510	-0.098550916
61	0xbe2cc0fb	-0.16870491
62	0x3e1a9868	0.15097201
63	0x3e77be71	0.24193741

blocks.3.blocks.6.blocks.6.bias f4 [8]
0	0x3d14c843	0.036323797
1	0x3e867ae9	0.26265648
2	0xbe1428f4	-0.14468747
3	0x3dfb1162	0.12259175
4	0xbd557085	-0.05210926
5	0xbd5e563d	-0.054281462
6	0xbe82467a	-0.25444394
7	0xbdfc9eb9	-0.123349614

blocks.3.blocks.6.blocks.6.running_mean f4 [8]
0	0xbe6f516a	-0.23370901
1	0xbe6bde65	-0.23034056
2	0x3e7fe3f1	0.24989296
3	0xbf13f182	-0.57790387
4	0x3c13f0bc	0.0090295635
5	0x3e509394	0.20368797
6	0x3e6269b6	0.22110638
7	0x3e59e191	0.21277453

blocks.3.blocks.6.blocks.6.running_var f4 [8]
0	0x3e228b80	0.15873528
1	0x3e31f9a7	0.17380391
2	0x3e8beeaf	0.2733054
3	0x3de4d399	0.111731716
4	0x3e45094d	0.19241829
5	0x3d8aaa1d	0.06770728
6	0x3e3a4be7	0.18193017
7	0x3e5b85c3	0.21437745

blocks.3.blocks.6.blocks.6.weight f4 [8]
0	0x3f87b6c3	1.060265
1	0x3f8aa75f	1.0832328
2	0x3f4f21cb	0.8091094
3	0x3f75c613	0.9600536
4	0x3f86cadf	1.0530661
5	0x3f46679d	0.7750185
6	0x3f824721	1.0177957
7	0x3f8b9c21	1.0907022

blocks.3.blocks.9.weight f4 [16, 8, 3, 3]
0	0x3d9f60fb	0.077821694
1	0x3df6a4c1	0.12043143
2	0xbd42a592	-0.04752118
3	0x3df95255	0.12173907
4	0xbdfbf361	-0.1230228
5	0x3d583e49	0.052793775
6	0xbdf823be	-0.12116192
7	0x3dae0e07	0.08498769
8	0x3d563bf3	0.052303266
9	0x3c459379	0.012059086
10	0x3e2ca291	0.16858889
11	0x3da64dd7	0.081203155
12	0x3e239fef	0.15978979
13	0x3db7c5a4	0.08973244
14	0x3cb536ac	0.022120796
15	0x3da318e7	0.07963734
16	0xbce32d7e	-0.027731653
17	0x3d5b2dc4	0.053510442
18	0x3d6e9494	0.058247164
19	0x3d67e2e0	0.05661285
20	0x3dabe0bf	0.08392476
21	0xbbd38556	-0.006455104
22	0xbdb80703	-0.089857124
23	0x3ba8e7a1	0.0051545654
24	0x3da9a47b	0.08283325
25	0x3d37446a	0.04474298
26	0x3dbb7ba8	0.09154445
27	0xbd5d8322	-0.054080136
28	0xbcc7bff4	-0.024383523
29	0x3cff3dd6	0.031157415
30	0x3d3736c0	0.044729948
31	0x3cb8577f	0.022502659
32	0xbd6fb8c2	-0.05852581
33	0x3d6894db	0.056782585
34	0x3d433800	0.047660828
35	0x3d848f96	0.06472699
36	0xbcb71738	-0.022349939
37	0x3e290857	0.16507088
38	0x3e00ac45	0.12565716
39	0x3d3cd990	0.04610592
40	0x3dc265dd	0.09492085
41	0x3e28fcc9	0.1650268
42	0xbc85c3f3	-0.016328787
43	0x3d410fc9	0.047134195
44	0xbb888b2a	-0.0041669803
45	0x3d37abf2	0.044841714
46	0x3df80958	0.12111157
47	0x3db9d9a0	0.09074712
48	0xbc12f33f	-0.008969127
49	0x3c9c0900	0.01904726
50	0x3e008b47	0.1255313
51	0xbdadd33f	-0.084875576
52	0xbdf0fc37	-0.11766856
53	0xbd891418	-0.06693286
54	0xbdd49a6b	-0.103810154
55	0x3dc0de0f	0.09417354
56	0xbd797bf2	-0.06090922
57	0xbc804994	-0.015660085
58	0xbb27a343	-0.002557949
59	0xbcfbf250	-0.030755192
60	0xbda8cf66	-0.08242683
61	0xbcd86c06	-0.026418697
62	0x3ca5b8dc	0.02022975
63	0x3d336fbb	0.043807726
64	0x3deac4f8	0.1146335
65	0xbc97b6a3	-0.018519705
66	0x3e2752c9	0.16340174
67	0x3e327f2f	0.17431329
68	0x3d56acba	0.05241082
69	0x3c8afa6e	0.016965117
70	0xbd2c7394	-0.04210241
71	0x3daee0ac	0.085389465
72	0xbe038bf8	-0.12846363
73	0x3db2e74d	0.087355234
74	0xbdb76893	-0.08955493
75	0x3e95f046	0.29284877
76	0x3e9c6a13	0.30549678
77	0x3c067fa0	0.008209139
78	0x3e4b357d	0.19844623
79	0x3d877c9d	0.06615565
80	0x3dead35a	0.11466093
81	0xbc33f4b8	-0.010983638
82	0xbc4de843	-0.012567583
83	0x3cdbc1af	0.026825754
84	0xbd6258fa	-0.055260636
85	0xbcb93544	-0.022608407
86	0x3e3807f4	0.17971784
87	0x3bca9a29	0.006182928
88	0xbe217386	-0.15766725
89	0xbd8a844b	-0.06763514
90	0xbdef0484	-0.11670783
91	0xbe283d4f	-0.16429637
92	0x3e02201e	0.12707564
93	0x3b13962f	0.0022519936
94	0x3dbc7c46	0.09203391
95	0xbda4166c	-0.08012089
96	0x3e4e74f5	0.20161803
97	0x3dcf58d9	0.10124368
98	0x3d0a98c9	0.033837114
99	0x3dffbf8e	0.12487708
100	0xbd1cd30d	-0.03828721
101	0xbda6dde5	-0.08147792
102	0xbd59539d	-0.053058255
103	0xbd6798d2	-0.056542225
104	0x3caacb2d	0.020848835
105	0xbe5b2197	-0.21399532
106	0xbbb02640	-0.0053756535
107	0x3d64d036	0.055862628
108	0xbe38b048	-0.18035996
109	0xbe1af796	-0.15133509
110	0x3de4ab56	0.11165492
111	0xbd565d18	-0.052334875
112	0xbd657904	-0.056023613
113	0x3db2b7cb	0.08726462
114	0x3be8ec38	0.0071082376
115	0x3cebad2c	0.028769098
116	0x3c83c067	0.016082956
117	0xbd438a67	-0.047739413
118	0x3da783f1	0.08179463
119	0x3d9005ae	0.07032333
120	0x3e46588e	0.19369718
121	0x3d443929	0.047906075
122	0xb7ce32bd	-2.458074e-05
123	0x3df5b8d9	0.119981475
124	0x3d27e682	0.040991314
125	0xbc8d3bda	-0.017240454
126	0xbdd6ece2	-0.104944006
127	0xbe0e6ce0	-0.1390872
128	0x3da64de9	0.08120329
129	0xbd8d915e	-0.06912492
130	0x3da8bdd2	0.0823933
131	0xbc7b127c	-0.015324231
132	0xbd78b0e6	-0.06071558
133	0xbe1281d1	-0.14307334
134	0xbd8ee571	-0.06977356
135	0xbc4b6287	-0.0124136275
136	0xbdaa8ffe	-0.083282456
137	0x3e7e32d2	0.24824074
138	0xbe5aec5f	-0.21379231
139	0xbc66bbfa	-0.014082903
140	0x3d055510	0.032551825
141	0xbc93e6d8	-0.01805441
142	0xbdbaaeb9	-0.09115357
143	0xbdd70e59	-0.105007835
144	0xbdc42400	-0.09577179
145	0xbc0173b7	-0.007901124
146	0x3db58fa0	0.08865285
147	0x3dd96f29	0.10616905
148	0xbde83805	-0.1133881
149	0xbd19e1f2	-0.037568994
150	0x3d4ce00e	0.050018363
151	0xbd58300f	-0.052780207
152	0x3cc87c2e	0.024473276
153	0x3d9734d0	0.0738312
154	0x3c7e6bb7	0.015528611
155	0x3d7811d0	0.060563862
156	0x3d844cd8	0.06459969
157	0xbcfc8e6a	-0.030829627
158	0x3d5e6024	0.054290906
159	0x3d954891	0.072892316
160	0x3dbd3dd2	0.09240307
161	0x3e65b076	0.22430596
162	0xbca86c77	-0.020559533
163	0xbddd9823	-0.108200334
164	0xbd4a0937	-0.049325194
165	0x3d40558b	0.04695658
166	0xbca55f3f	-0.020187018
167	0x3cc16ed5	0.02361242
168	0x3d35e484	0.044407383
169	0xbd7c5822	-0.061607487
170	0x3b61ab4d	0.0034434379
171	0x3cad0d02	0.021124367
172	0xbe0fd69d	-0.14046712
173	0xbe04f4ee	-0.12984058
174	0xbd615450	-0.055012047
175	0x3d8453e8	0.06461316
176	0xbd1cb8e7	-0.038262274
177	0x3e311641	0.17293645
178	0xbd192e64	-0.037397757
179	0xbdb3ae6d	-0.087735035
180	0xbdc2d4fe	-0.09513281
181	0xbb964968	-0.0045863874
182	0x3df696f6	0.12040512
183	0x3c273a9e	0.0102068465
184	0x3d01fcdd	0.03173529
185	0xbdd4cdc4	-0.10390809
186	0xbd566894	-0.052345827
187	0x3b8fab00	0.0043843985
188	0x3daa8eba	0.08328004
189	0x3d77e943	0.06052519
190	0x3d798a34	0.060922816
191	0x3e0d8472	0.13820055
192	0x3d4bac15	0.049724657
193	0xbdc6edc3	-0.09713318
194	0x3d14ed20	0.036358953
195	0x3d7bb5c6	0.06145265
196	0x3c24f4e6	0.010068154
197	0xbca99474	-0.02070067
198	0x3de7c00d	0.11315928
199	0xbd7cb578	-0.0616965
200	0x3c878317	0.016542
201	0x3c561c21	0.01306823
202	0xbcfdd498	-0.030985162
203	0xbbbff8b4	-0.005858505
204	0xbcee8555	-0.029116312
205	0x3d70b6be	0.058768027
206	0xbda5e478	-0.081002176
207	0x3e32182d	0.17392035
208	0x3e799ee7	0.24377023
209	0x3e92fda9	0.28709152
210	0x3c49d440	0.012318671
211	0x3da0d836	0.07853739
212	0xbd76b01c	-0.060226545
213	0xbdf489d9	-0.11940355
214	0x3de6cb70	0.112692714
215	0x3d9e69f7	0.07735055
216	0x3d08e069	0.03341714
217	0xbdb47509	-0.08811385
218	0xbcb0f856	-0.02160279
219	0xbaa87974	-0.0012853579
220	0xbdd3c89f	-0.10341
221	0x3dd80834	0.105484396
222	0x3de818f3	0.11332884
223	0x3dbbf17b	0.09176918
224	0x3e76f9b6	0.24118695
225	0x3d0f9a2e	0.035059147
226	0xbb9da684	-0.00481111
227	0x3d39242d	0.045200516
228	0x3e3c4ddf	0.1838908
229	0x3e09308a	0.13397422
230	0xbd88c8c2	-0.066789165
231	0x3e67d772	0.2264078
232	0x3e4b7c90	0.19871736
233	0xbb91bafa	-0.004447338
234	0x3d9c93d1	0.07645381
235	0xbdecbd5c	-0.11559555
236	0x3c8a2f05	0.016868124
237	0xbce0efeb	-0.027458152
238	0x3c6d5e38	0.0144877955
239	0x3df25b40	0.11833811
240	0x3db6fc8c	0.08934888
241	0x3dca775a	0.09886046
242	0xbdad606b	-0.08465656
243	0xbce6aa93	-0.028157508
244	0x3cc3a7a3	0.023883646
245	0xbdc2cb64	-0.0951145
246	0xbe0a3b2c	-0.13499135
247	0x3d008270	0.031374395
248	0xbe2ca996	-0.16861567
249	0x3d254576	0.040349446
250	0xbe3ae9b6	-0.18253216
251	0xbc13ece3	-0.009028646
252	0x3da5f221	0.08102823
253	0x3e1330b9	0.14374055
254	0xbbcf46af	-0.006325565
255	0x3c9e2332	0.019303892

blocks.4.blocks.10.bias f4 [16]
0	0xbd956567	-0.072947316
1	0xbc9c7212	-0.019097362
2	0x3d43c7a3	0.04779781
3	0xbe3a2ebc	-0.1818189
4	0x3dfb8fe0	0.12283301
5	0xbe59749d	-0.2123589
6	0xbc1210ae	-0.00891511
7	0xbdb25752	-0.08708061
8	0x3b334d0c	0.0027359156
9	0xbd2f4a79	-0.042795632
10	0xbaca550c	-0.0015436723
11	0xbd4b5046	-0.0496371
12	0xbcbd4000	-0.023101807
13	0xbd94bc49	-0.07262475
14	0xbced1514	-0.028940715
15	0xbd2eb79c	-0.042655572

blocks.4.blocks.10.running_mean f4 [16]
0	0x3f388418	0.7207656
1	0x3f18bcb2	0.59662926
2	0x3fab2873	1.3371719
3	0xbf09f27e	-0.5388564
4	0x3f4b6053	0.79443854
5	0xbf5df441	-0.86700827
6	0x3ed59f4c	0.41723096
7	0xbf9fe27c	-1.2490993
8	0x3dbcf7a2	0.0922692
9	0x3ffd5dc7	1.9794244
10	0x3f8a12ae	1.078695
11	0xbefbe4e6	-0.49198073
12	0x3fe92b63	1.8216366
13	0xbfa76bd0	-1.3079777
14	0x3f2d4598	0.67684317
15	0xbf9628c1	-1.1731187

blocks.4.blocks.10.running_var f4 [16]
0	0x40239c11	2.5564005
1	0x4061702f	3.5224721
2	0x4089fa35	4.311793
3	0x3f521097	0.82056564
4	0x3fd2624a	1.6436245
5	0x3fe69a65	1.8015867
6	0x402d3aa0	2.7067032
7	0x40aa8d5e	5.3297567
8	0x3fa7fe19	1.312442
9	0x4119b3ee	9.606428
10	0x402a5f21	2.6620562
11	0x3ffafd86	1.9608619
12	0x41752094	15.320454
13	0x40323d3a	2.784987
14	0x40ad4996	5.4152327
15	0x4023afcb	2.5576046

blocks.4.blocks.10.weight f4 [16]
0	0x3f84ed06	1.0384834
1	0x3f7d2beb	0.9889514
2	0x3f654d8b	0.89571446
3	0x3f507b72	0.8143836
4	0x3f851892	1.0398123
5	0x3f5b3103	0.8562166
6	0x3f81ed39	1.015052
7	0x3f5aec42	0.8551675
8	0x3f810b46	1.0081565
9	0x3f753ae2	0.95792973
10	0x3f7663ac	0.9624584
11	0x3f74b5b0	0.95589733
12	0x3f80a8bc	1.0051494
13	0x3f612671	0.8794928
14	0x3f8167b8	1.0109777
15	0x3f7ab3d4	0.97930646

blocks.4.blocks.12.bias f4 [16]
0	0xb924b5e7	-0.00015708023
1	0x38adeecf	8.2937644e-05
2	0xb736e19e	-1.0900576e-05
3	0xb6432ced	-2.9083415e-06
4	0xb89eb459	-7.5676195e-05
5	0x354b92c4	7.5836965e-07
6	0x370a6dce	8.251007e-06
7	0xb8a4ce38	-7.8585406e-05
8	0x38af69ff	8.3643936e-05
9	0xb88b0d43	-6.630507e-05
10	0x37ea3e1a	2.7923892e-05
11	0x399d285e	0.0002997545
12	0xb73c7a4d	-1.1234149e-05
13	0xb5d874df	-1.6127268e-06
14	0x37837e0e	1.5675116e-05
15	0xb989896c	-0.00026233064
